mobile_java_model_machine_learning/parkinsons_model.tflite (tflite, 18776 bytes, 7 tensors)

arith.constant f4 [16, 32]
0	0x3d88379b	0.06651231
1	0xbe81e76d	-0.25371876
2	0xbda9fc64	-0.08300093
3	0xbd2cd987	-0.042199638
4	0x3e864310	0.2622304
5	0x3b7c11dd	0.0038462796
6	0xbd0414ec	-0.032246515
7	0xbe81b59a	-0.25333863
8	0x3e14de3e	0.14537904
9	0xbdf7ae7b	-0.120938264
10	0xbeb52320	-0.3537836
11	0xbe415582	-0.18880275
12	0xbe49a675	-0.19692405
13	0xbe24de8f	-0.16100524
14	0x3e790148	0.24316895
15	0xbd8c72b1	-0.06857813
16	0x3d9a5ef5	0.07537643
17	0x3e05036d	0.12989588
18	0x3e7c7e99	0.24657668
19	0xbde30564	-0.110850126
20	0x3eae970f	0.34099624
21	0x3dc2daa0	0.09514356
22	0x3e056dff	0.13030241
23	0x3e95c2dc	0.29250228
24	0x3d16b27d	0.036791313
25	0xbe6c6183	-0.23084073
26	0x3e2f035f	0.1709113
27	0xbe81fc4b	-0.25387797
28	0x3dd53343	0.10410168
29	0xbe52bdb1	-0.20580174
30	0xbdb4d8b0	-0.08830392
31	0xbea20a79	-0.31648615
32	0xbd17dda0	-0.037076592
33	0xbe17e0f5	-0.14831908
34	0x3e6b3945	0.22971065
35	0x3dcc140c	0.09964761
36	0xbe17ee59	-0.14837016
37	0xbe9e7b0f	-0.3095326
38	0x3dd9e72d	0.106397964
39	0x3e05e779	0.13076581
40	0xbe541032	-0.20709303
41	0xbe57a52e	-0.21059105
42	0x3afd89a6	0.0019343391
43	0x3e4bb193	0.19891958
44	0x3d818441	0.063240536
45	0x3d8e4e3a	0.06948514
46	0xbeb3d7d7	-0.3512561
47	0xbe85f2b1	-0.2616172
48	0x3da07956	0.07835643
49	0xbe49d4df	-0.1971011
50	0xbe5bc987	-0.21463595
51	0x3decc03f	0.115601055
52	0xbe2b0ed3	-0.16704874
53	0x3dfb9fb0	0.12286317
54	0x3e5ef2cd	0.21772309
55	0xbdd9fd49	-0.106440134
56	0x3d1b1195	0.037858564
57	0x3e8cd883	0.27508935
58	0x3b0773bb	0.0020668346
59	0x3e2042e4	0.15650517
60	0x3c3569f1	0.011072622
61	0xbe8927cb	-0.26788172
62	0xbe317b29	-0.17332138
63	0x3e0eacb9	0.13933076
64	0xbe6845be	-0.22682855
65	0xbea0976c	-0.31365526
66	0xbe91f4f6	-0.28507203
67	0x3e6ea428	0.23304808
68	0x3ccd33fb	0.0250492
69	0x3e7a0b40	0.24418354
70	0xbdcd4098	-0.10022086
71	0xbea3fc4d	-0.32028428
72	0x3e116f03	0.14202504
73	0xbe38a485	-0.18031509
74	0xbe405257	-0.1878141
75	0xbcac288d	-0.02101543
76	0xbdb02420	-0.0860064
77	0xbe1de904	-0.1542092
78	0x3e9edfb8	0.3103006
79	0xbe2ffd5d	-0.17186494
80	0xbd88e184	-0.06683639
81	0x3e0fdf83	0.14050107
82	0xbe090a65	-0.13382871
83	0xbe4a3c35	-0.1974953
84	0xbe95f745	-0.29290214
85	0xbe3acdc3	-0.18242554
86	0xbe897823	-0.2684947
87	0x3e592c4d	0.21208306
88	0x39c372a1	0.00037278704
89	0xbe4fc8cd	-0.20291443
90	0x3e1429ff	0.14469145
91	0xbe8dc56e	-0.2768969
92	0x3e8be40f	0.27322432
93	0x3e929bc5	0.28634468
94	0x3e0f8fbc	0.14019674
95	0x3dd5600d	0.10418711
96	0x3e24f361	0.16108467
97	0x3e8b09bb	0.2715586
98	0xbd151cf3	-0.03640456
99	0xbe7cca3a	-0.24686518
100	0x3e4463ea	0.19178739
101	0x3da647ff	0.08119201
102	0xbc024f63	-0.007953498
103	0x3d0d022a	0.034425892
104	0xbbe30a43	-0.0069287135
105	0xbda63e6a	-0.08117373
106	0x3e7d8227	0.2475668
107	0xbe8458d2	-0.25849015
108	0x3e6a8ff4	0.22906476
109	0xbd114165	-0.035462756
110	0xbd656e2d	-0.056013275
111	0xbe2a4037	-0.16626059
112	0x3e4a1793	0.19735555
113	0x3d2c9f4a	0.042144097
114	0x3dc6ca4d	0.097065546
115	0x3cb64e8f	0.022254257
116	0x3e14f748	0.14547455
117	0xbe316f1e	-0.17327544
118	0x3e89a7ff	0.26885983
119	0xbe01c7ab	-0.12673824
120	0xbeab8932	-0.3350311
121	0xbe277dfa	-0.1635665
122	0x3e5fee9a	0.21868363
123	0x3e70e3c6	0.23524389
124	0xbe5903c1	-0.21192838
125	0x3df48830	0.11940038
126	0xbe865c2f	-0.26242206
127	0x3e221799	0.15829314
128	0x3e84fc40	0.259737
129	0x3e7c3092	0.24627903
130	0xbdd739da	-0.10509081
131	0xbe67bba0	-0.22630167
132	0x3d220e71	0.039564554
133	0xbeb8a012	-0.36059624
134	0xbb0877a5	-0.0020823267
135	0xbde747e5	-0.1129301
136	0xbe3934cd	-0.18086548
137	0x3e0e2cec	0.13884324
138	0x3e281db1	0.16417576
139	0xbec8ca83	-0.39217004
140	0x3e576aa6	0.21036777
141	0x3dbcf45a	0.09226294
142	0xbeb8c2cb	-0.36086115
143	0xbe685ee9	-0.22692455
144	0x3d031d52	0.032010384
145	0xbec105d5	-0.37699762
146	0x3e080d64	0.13286358
147	0x3e7e684a	0.2484447
148	0xbedb21cb	-0.4279922
149	0xbc75eed0	-0.015010551
150	0x3ea21b36	0.31661385
151	0xbddc0ff0	-0.10745227
152	0xbec71042	-0.3887959
153	0x3e91db30	0.2848754
154	0x3e14329a	0.14472428
155	0x3d87c578	0.06629461
156	0xbe69833e	-0.22803971
157	0xbcc1c1a7	-0.023651911
158	0xbe94b1ed	-0.29041997
159	0x3d879630	0.06620443
160	0xbe14884f	-0.14505123
161	0xbd851039	-0.06497235
162	0xbe4356a5	-0.19076021
163	0x3e1371e6	0.14398918
164	0x3e9d877b	0.30767426
165	0x3dfb7869	0.12278826
166	0x3df74244	0.12073186
167	0xbe90db98	-0.28292537
168	0x3de97bec	0.11400589
169	0xbea743d3	-0.32668933
170	0xbe813851	-0.25238279
171	0x3d12a6ca	0.035803594
172	0xbe893a11	-0.26802114
173	0xbdd1b518	-0.10239619
174	0xbd32d3fa	-0.043659188
175	0x3e98ef8c	0.2987026
176	0x3d5cb940	0.053887606
177	0xbe1cb052	-0.15301636
178	0xbe2723a2	-0.16322187
179	0x3da693d3	0.08133664
180	0x3db68ad2	0.089131966
181	0xbe63d0e9	-0.22247662
182	0xbe9cb6ab	-0.30608115
183	0x3e8fe50b	0.28104433
184	0xbd3c8c03	-0.046031963
185	0xbc655610	-0.01399757
186	0xbd7840a5	-0.060608525
187	0xbd8b79ac	-0.068103164
188	0xbe1ba748	-0.15200531
189	0xbe19ce70	-0.15020156
190	0x3dc22f83	0.094817184
191	0xbe1e196c	-0.15439385
192	0xbcbb4339	-0.022859203
193	0xbe1eba11	-0.15500666
194	0xbcd863c3	-0.026414758
195	0x3d3c5ff5	0.04598995
196	0x3ea1bb2e	0.3158812
197	0xbd6ccf74	-0.05781503
198	0xbe5e0ac7	-0.21683799
199	0xbe882e7d	-0.26597968
200	0x3cd64e0f	0.026160268
201	0xbe009d1f	-0.12559937
202	0xbe8c5056	-0.2740504
203	0x3d217b7e	0.039424412
204	0xbe9a2a54	-0.3011042
205	0x3dd46c4a	0.10372217
206	0x3e669c60	0.2252059
207	0x3e2a91d3	0.1665719
208	0xbe9d8d72	-0.30771977
209	0xbd87bb93	-0.06627574
210	0x3d6e3021	0.058151368
211	0xbc6e2ac1	-0.0145365605
212	0xbe741931	-0.23837735
213	0xbe91b943	-0.28461656
214	0xbe8ba86b	-0.2727693
215	0xbd52d7c9	-0.05147532
216	0x3c9f3cd9	0.019438194
217	0x3e53f36c	0.20698327
218	0xbda6257d	-0.08112619
219	0xbd205ba8	-0.03914991
220	0x3bc06470	0.005871348
221	0x3e640de3	0.22270922
222	0x3de11b31	0.109915145
223	0xbea1c867	-0.31598207
224	0x3c1fd67a	0.009755725
225	0x3e811e13	0.25218257
226	0x3d9086f7	0.070569925
227	0xbe83856b	-0.25687727
228	0xbe8d6458	-0.2761562
229	0xbd0fae03	-0.03507806
230	0x3e2d63b3	0.16932563
231	0xbd918142	-0.07104732
232	0xbe95853a	-0.29203206
233	0xbde0b3e5	-0.10971812
234	0x3e6486f8	0.22317111
235	0xbdf1ed28	-0.11812812
236	0xbe1db012	-0.15399197
237	0x3e0c83cd	0.13722153
238	0xbd821c7c	-0.06353089
239	0xbe8e15df	-0.2775106
240	0xbb40d2ae	-0.002942245
241	0x3dda37ee	0.10655199
242	0xbe8116bd	-0.2521266
243	0x3e98f3d1	0.29873517
244	0x3c8d3a86	0.01723982
245	0xbdedc3f7	-0.11609643
246	0x3d58ea98	0.0529581
247	0x3de7e382	0.113226905
248	0xbd7d4b9f	-0.061839696
249	0x3e8661ec	0.26246583
250	0x3e6291ed	0.22125979
251	0x3d30e1e9	0.043184195
252	0xbdbeee10	-0.093227506
253	0x3db4773c	0.08811805
254	0xbe038e3b	-0.12847225
255	0xbc542ed9	-0.0129506225

arith.constant1 f4 [16]
0	0x3fe9523f	1.8228225
1	0x3d4f2974	0.050576642
2	0x402d5721	2.708443
3	0xbf09c0ce	-0.5380982
4	0x3f8e2ad5	1.1106821
5	0x400bf923	2.187081
6	0x4020b463	2.51101
7	0x3e7f3778	0.24923503
8	0x3f10a6ae	0.56504333
9	0xbf312bc3	-0.692074
10	0xbf5d7c0c	-0.86517406
11	0x408f5508	4.47913
12	0x3f6117a7	0.87926716
13	0xbf589e6f	-0.8461675
14	0x3f5eea2f	0.87076086
15	0x4001f694	2.030675

arith.constant2 f4 [32, 64]
0	0xbf342384	-0.7036669
1	0x3ebd0800	0.36920166
2	0x3c87a679	0.016558873
3	0x3eebd679	0.46062067
4	0xbe5e40cd	-0.21704407
5	0x3d303715	0.04302128
6	0xbea7fe4c	-0.328112
7	0xbeea8917	-0.45807716
8	0xbe19f6f4	-0.15035611
9	0xbf1caaf7	-0.6119837
10	0x3ccae2a6	0.024766278
11	0x3f009b5a	0.5023705
12	0x3e9db2e1	0.30800536
13	0x3adb746a	0.0016743068
14	0xbef53539	-0.47892168
15	0x3e835ced	0.25656834
16	0xbeb27b12	-0.3485952
17	0xbf5cdc0e	-0.86273277
18	0x3eb8e640	0.36113167
19	0xbe947ff7	-0.2900388
20	0xbf2ebca5	-0.682566
21	0x3d99bd13	0.07506766
22	0x3f0edfce	0.5581025
23	0xbd4a70dc	-0.049424037
24	0xbde52eb2	-0.11190547
25	0xbeedbfb0	-0.46435308
26	0xbe97301a	-0.29528886
27	0xbecb860e	-0.39750713
28	0x3e19eef3	0.15032558
29	0xbdc39b23	-0.09551074
30	0x3e287476	0.16450676
31	0x3eb424aa	0.35184222
32	0x3f0451ff	0.51687616
33	0x3e2b457d	0.16725726
34	0xbee36923	-0.4441615
35	0x3df040fd	0.117311455
36	0x3e799b88	0.24375737
37	0x3e102716	0.1407741
38	0xbeafc45c	-0.34329498
39	0xbf2378ae	-0.6385602
40	0xbf0518ec	-0.5199115
41	0xbe99f209	-0.3006747
42	0x3dc35593	0.09537806
43	0x3e12ffb9	0.14355363
44	0x3d11d162	0.035600074
45	0xbdfe263d	-0.12409637
46	0x3f4cb5bc	0.79964805
47	0xbe1ec8bb	-0.1550626
48	0x3f23488b	0.63782567
49	0xbef68514	-0.48148406
50	0x3e34dea9	0.17663063
51	0x3e95f627	0.29289362
52	0x3e47b303	0.19501881
53	0x3dec8a0b	0.11549767
54	0xbf0dc435	-0.55377513
55	0xbdb790f8	-0.089631975
56	0x3e743228	0.23847258
57	0xbeb50341	-0.35354045
58	0x3d877d94	0.06615749
59	0x3e782333	0.24232177
60	0xbf2e8209	-0.6816717
61	0x3e1c7d94	0.15282279
62	0x3e8852fd	0.26625815
63	0xbef9e171	-0.4880481
64	0xbd258808	-0.040412933
65	0xbe9c777c	-0.3055991
66	0xbe9e5379	-0.3092306
67	0xbdac99b6	-0.084277555
68	0xbead3afe	-0.3383407
69	0x3e07c0c5	0.1325713
70	0x3e1b4918	0.15164602
71	0xbd96285b	-0.07331916
72	0x3f484259	0.7822624
73	0xbf096f2e	-0.5368527
74	0x3f0a9230	0.54129314
75	0x3eb2d1bb	0.34925637
76	0x3e97300d	0.29528847
77	0xbed5a424	-0.41726792
78	0x3e99f705	0.30071273
79	0x3e2b01db	0.16699927
80	0xbe2d5fb9	-0.16931047
81	0x3e833f8b	0.25634417
82	0x3f2443a4	0.6416571
83	0x3eb2a436	0.34890908
84	0x3ea317bf	0.31854054
85	0xbee7c06c	-0.45263994
86	0x3f0cc87f	0.5499343
87	0xbe760077	-0.24023615
88	0xbeed2480	-0.4631691
89	0xbea5de18	-0.32396007
90	0xbe9cca48	-0.30623078
91	0xbe42e38b	-0.19032113
92	0xbca3e79c	-0.0200079
93	0xbe6f6fde	-0.23382518
94	0xbe26471c	-0.16238064
95	0xbcc76b6f	-0.02434322
96	0x3e8335ab	0.25626883
97	0x3eb9373e	0.3617496
98	0x3eb68a34	0.35652316
99	0x3ba6292e	0.005070827
100	0xbea905d1	-0.3301225
101	0xbef23775	-0.47307935
102	0xbd87e3d1	-0.066352494
103	0xbf001b80	-0.5004196
104	0x3d4da815	0.050209124
105	0xbeb357f3	-0.35028037
106	0x3dcaad67	0.09896355
107	0xbecddd1c	-0.40207756
108	0x3e44cfc4	0.19219881
109	0xbeae9d9c	-0.3410462
110	0xbe296beb	-0.16545074
111	0xbe96f1cd	-0.29481354
112	0xbf1cf914	-0.61317563
113	0xbe791bae	-0.24326965
114	0xbde00dd7	-0.1094014
115	0xbe9a0b9b	-0.3008698
116	0xbe8727f2	-0.26397663
117	0xbe6e9cc0	-0.23301983
118	0xbe0abecf	-0.1354935
119	0xbe5d328d	-0.21601315
120	0xbd2a57c3	-0.041587602
121	0xbee0c828	-0.43902707
122	0xbea7f0bd	-0.32800856
123	0xbd07f275	-0.03319021
124	0xbdd175f4	-0.10227576
125	0x3f20e285	0.6284564
126	0xbe65560b	-0.22396104
127	0xbf07fbc4	-0.5311854
128	0xbde58409	-0.11206824
129	0x3dbb3137	0.09140246
130	0x3f2ad802	0.6673585
131	0x3ee9c4e3	0.45658025
132	0x3e9122af	0.28346774
133	0x3dbb4681	0.09144307
134	0x3f2d3efc	0.6767423
135	0xbec06c2b	-0.37582526
136	0xbeac8c68	-0.3370087
137	0x3ec7c814	0.39019835
138	0xbdaaeca4	-0.08345917
139	0x3ead5516	0.33853978
140	0xbe58eb32	-0.2118347
141	0x3f211319	0.62919766
142	0xbf0e56d7	-0.5560126
143	0x3edee375	0.4353291
144	0x3e883750	0.266047
145	0x3f337964	0.701071
146	0x3ee18dbc	0.44053447
147	0x3d2c9602	0.042135246
148	0xbf231fe3	-0.6372053
149	0x3ce8d166	0.028420161
150	0x3f10ae54	0.56516004
151	0xbde2a17b	-0.11065956
152	0x3e36cf20	0.1785245
153	0xbf4550e3	-0.7707655
154	0xbe86ec7e	-0.26352304
155	0xbef50f28	-0.47863126
156	0x3f087711	0.5330668
157	0x3e85ce7d	0.261341
158	0x3d462523	0.04837526
159	0x3e79c0f3	0.2439001
160	0xbd4b6d8d	-0.049665023
161	0x3ea9fa34	0.33198702
162	0xbe8f4e60	-0.27989483
163	0xbe84eb06	-0.2596056
164	0xbe8d5792	-0.27605873
165	0xbe8dcd3c	-0.27695644
166	0xbe8743ef	-0.26419017
167	0x3ec49603	0.383957
168	0xbf0b5c5c	-0.54437804
169	0xbd800d0a	-0.06252487
170	0xbe8dcaa5	-0.27693668
171	0xbe8ef8fd	-0.27924338
172	0xbdc48e1f	-0.0959742
173	0xbe177a39	-0.14792718
174	0xbee84807	-0.45367453
175	0xbe884b65	-0.2662002
176	0x3edb3d81	0.4282036
177	0x3f2a08e1	0.664198
178	0x3e32d5e3	0.17464404
179	0xbe74e0f1	-0.23913933
180	0x3eb534d2	0.3539186
181	0x3eea303c	0.45739925
182	0xbec42d62	-0.38315874
183	0xbd9e3ef8	-0.07726854
184	0x3e475aff	0.19468306
185	0xbe490447	-0.19630538
186	0x3ee4c1c2	0.44679075
187	0xbdb4e55b	-0.088328086
188	0x3f35134c	0.7073257
189	0xbe8386cc	-0.2568878
190	0x3ef9d416	0.4879462
191	0xbf226d7b	-0.63448304
192	0xbf0372b4	-0.513469
193	0x3e75a1cf	0.23987506
194	0x3f132eff	0.57493585
195	0x3f0b1e1e	0.5434283
196	0x3ded3d44	0.11583951
197	0x3d73d6f6	0.059531175
198	0x3f048702	0.51768506
199	0xbe8adf67	-0.27123567
200	0xbeda2b0d	-0.4261097
201	0xbdef8a32	-0.116962805
202	0x3dd509eb	0.10402282
203	0xbeaa4935	-0.33258978
204	0xbe421e13	-0.18956785
205	0x3ec77523	0.38956556
206	0xbea555f4	-0.3229214
207	0xbf0ccb5d	-0.5499781
208	0x3eabd5a9	0.33561447
209	0xbf26efa6	-0.65209424
210	0x3e89d9ba	0.26923925
211	0x3e99d65b	0.30046353
212	0xbcaa2365	-0.02076883
213	0x3ef9aaf0	0.48763227
214	0x3e2a616e	0.16638729
215	0x3e95eee2	0.29283816
216	0x3e296251	0.16541411
217	0x3f6d815e	0.92775524
218	0x3de7ee85	0.11324791
219	0x3f158280	0.5840225
220	0xbd9ce40b	-0.07660683
221	0xbde70af8	-0.11281389
222	0xbe895e3a	-0.26829702
223	0x3e15e61a	0.14638558
224	0x3e3399e9	0.17539181
225	0xbe12c0e4	-0.14331394
226	0x3dd748df	0.10511946
227	0x3e976bb4	0.29574358
228	0xbe9061ce	-0.2819962
229	0x3eb8426a	0.3598817
230	0x3e7a5fe3	0.2445064
231	0x3f16822d	0.5879238
232	0xbea7e3e9	-0.3279107
233	0xbd87f338	-0.06638187
234	0xbef5a459	-0.4797695
235	0xbdfcabe9	-0.12337477
236	0x3eb0bba8	0.3451817
237	0x3ec256b4	0.37956774
238	0x3f0ddf53	0.5541889
239	0xbec60e3c	-0.38682735
240	0xbeb19454	-0.34683478
241	0xbf19eab4	-0.60123754
242	0x3e3e2236	0.18567738
243	0x3e11b5da	0.14229527
244	0xbe523751	-0.20528914
245	0x3e830473	0.25589332
246	0x3ec8ae06	0.3919527
247	0x3d9594cd	0.07303772
248	0xbe915ea3	-0.28392515
249	0x3f2bd923	0.671282
250	0xbe3e6377	-0.1859263
251	0x3de7887a	0.11305328
252	0xbf3ef1d1	-0.7458773
253	0x3f11e79e	0.56994045
254	0xbe886388	-0.26638436
255	0x3eeb3301	0.4593735

arith.constant3 f4 [32]
0	0x3f511e71	0.81687075
1	0x4029682e	2.6469836
2	0xbf25a741	-0.64708334
3	0xbfb2da74	-1.3972917
4	0x3ea118b5	0.31464162
5	0xbed8eec6	-0.4236967
6	0x3e99a2f3	0.30007133
7	0xbf8e40d4	-1.1113534
8	0xbe650da4	-0.22368485
9	0x3fab5404	1.3385015
10	0x3f00e704	0.503525
11	0x3f42bea3	0.7607214
12	0x3e879cc0	0.26486778
13	0xbeea2858	-0.45733905
14	0x3f5fe515	0.87458926
15	0x3eed17a6	0.46307105
16	0xbce431e9	-0.02785583
17	0xbedfbc9b	-0.43698582
18	0xbcf0f627	-0.02941425
19	0x3eb080a1	0.34473136
20	0xbfb636e9	-1.4235507
21	0xbeb8a70b	-0.36064944
22	0x3f5aa24f	0.85403913
23	0x3fd90140	1.6953506
24	0x3f5c3c59	0.86029583
25	0x3f81777e	1.0114591
26	0xbde1aa1b	-0.11018773
27	0x3f1d45e9	0.614348
28	0x3e446e21	0.19182636
29	0x3b0f2531	0.0021842236
30	0x3f8b8fda	1.0903275
31	0x3f356ebb	0.70872086

arith.constant4 f4 [1, 16]
0	0x3ec42b60	0.38314342
1	0xbddc0bc4	-0.107444316
2	0x3f0506ef	0.51963705
3	0xbf0c9c85	-0.5492633
4	0xbe82c088	-0.25537515
5	0x3ec5ec8f	0.38657042
6	0x3ed68577	0.418987
7	0xbef17f60	-0.47167492
8	0xbea6096d	-0.32429066
9	0x3e1bb11c	0.1520428
10	0xbeccb028	-0.39978147
11	0x3e7bd427	0.24592648
12	0xbf044a5a	-0.5167595
13	0xbed1ad8b	-0.40952715
14	0x3efff2a7	0.49989817
15	0x3f0dc820	0.5538349

arith.constant6 f4 [64]
0	0xbafb7fc5	-0.0019187859
1	0x3d335a5f	0.043787356
2	0x3cf4331e	0.02980953
3	0xbc446f81	-0.011989475
4	0x3caa187e	0.020763632
5	0xbc0c24f0	-0.008553728
6	0xbc365a4f	-0.01112993
7	0x3cdf2b47	0.027242316
8	0x3c21fbd8	0.009886704
9	0x3d48c506	0.04901602
10	0x3d45502f	0.048172172
11	0xbc9661fb	-0.018357268
12	0x3d84cdf8	0.06484598
13	0x3cc17ebc	0.023620002
14	0xbba8e398	-0.0051540844
15	0x3c8fa3c0	0.017534137
16	0x3d651c21	0.05593503
17	0x3cfce9ef	0.030873267
18	0x3a19729e	0.0005853566
19	0x3d635e6c	0.05550997
20	0x3b51a5f8	0.0031989794
21	0x3d7140eb	0.0588998
22	0x3d0694e5	0.03285684
23	0x3d525bdb	0.05135713
24	0x3d38349f	0.04497206
25	0x3a316985	0.0006767738
26	0x3c8b44ba	0.017000545
27	0x3bccf055	0.0062542357
28	0x3d66e53e	0.056370966
29	0x3c5d5a58	0.013510309
30	0x3d2ca6a5	0.042151112
31	0x3d1fe4e3	0.039036643
32	0x3d193d2c	0.037411854
33	0x3d7211b4	0.059098914
34	0x3c6d9712	0.01450135
35	0x3b192a7d	0.0023371272
36	0x3c078a03	0.008272651
37	0x3d5efa93	0.054438185
38	0x3d485df6	0.048917733
39	0xbc8569f7	-0.01628588
40	0x3d382738	0.044959277
41	0x3d2589d4	0.040414646
42	0x3d5143a9	0.051089916
43	0x3d6511f0	0.05592531
44	0xbc8929f6	-0.016743641
45	0x3d5fac3b	0.05460761
46	0xbc1b3771	-0.0094736675
47	0x3d73a0cf	0.05947953
48	0xbc79f86c	-0.015256982
49	0x3b87013c	0.00412002
50	0x3d9ed338	0.077551305
51	0x3d756d0c	0.05991845
52	0x3d09c943	0.033639204
53	0x3d69afcc	0.05705242
54	0x3bf62209	0.0075113815
55	0x3b18c7dc	0.0023312485
56	0x3d9b5407	0.07584386
57	0xbb119810	-0.002221588
58	0x3d5f9190	0.05458218
59	0x3d7b533e	0.061358683
60	0x3b6e99e7	0.003640765
61	0x3c80ed08	0.015738025
62	0x3d3cb9e7	0.046075728
63	0x3c782421	0.015145333

sequential_3_1/dense_12_1/MatMul f4 [64, 21]
0	0x3c08e885	0.008356218
1	0x3e87e5f2	0.26542622
2	0xbdf36c9b	-0.11885949
3	0x3d6bdb99	0.05758247
4	0x3da0cad2	0.07851185
5	0xbe623258	-0.22089517
6	0x3e38d52c	0.18050069
7	0x3e405f4f	0.18786357
8	0x3e5b1415	0.2139438
9	0xbc63ade2	-0.013896437
10	0x3e70449e	0.23463675
11	0x3dc40032	0.0957035
12	0x3e0f51e1	0.13996078
13	0x3cc3c4e0	0.023897588
14	0x3e4164c0	0.1888609
15	0x3e2e96de	0.17049739
16	0xbe618b85	-0.22025879
17	0x3b74ef7e	0.0037374194
18	0xbd8fccaa	-0.070214584
19	0x3e47224e	0.1944668
20	0xbe6c7c02	-0.2309418
21	0xbe5227d3	-0.20523004
22	0x3d974243	0.07385685
23	0xbdb1894c	-0.086687654
24	0xbe20f579	-0.1571864
25	0x3bba9296	0.005693744
26	0xbe280c4d	-0.16410942
27	0x3d0aee31	0.033918563
28	0xbbd7c304	-0.006584527
29	0x3e674ba4	0.22587448
30	0x3e0a5962	0.1351066
31	0xbe2b5c0c	-0.16734332
32	0xbe05a359	-0.13050593
33	0x3e265a21	0.16245319
34	0x3e940fcf	0.2891831
35	0xbbd72c47	-0.0065665576
36	0x3cf46c5e	0.02983683
37	0x3e6b7e38	0.22997367
38	0x3e6c0b40	0.23051167
39	0xbe3b6743	-0.1830111
40	0xbe3ee045	-0.1864024
41	0xbc10f54b	-0.008847545
42	0x3d4e2bb6	0.050334655
43	0xbe5a5427	-0.21321164
44	0xbdf38bc1	-0.1189189
45	0xbe76933c	-0.24079603
46	0x3e3dbd1c	0.18529171
47	0x3e08e8f7	0.13370119
48	0x3e2e95f4	0.1704939
49	0x3e28e91a	0.16495171
50	0x3dbdb0dd	0.092622496
51	0x3e436f76	0.19085488
52	0xbd6fa49a	-0.058506586
53	0x3deaa17f	0.11456584
54	0x3e085671	0.13314225
55	0x3d8d7fd3	0.06909146
56	0x3e8486c8	0.2588408
57	0x3cf0b191	0.029381545
58	0x3ba3186e	0.0049772775
59	0x3e2a032f	0.16602777
60	0x3e8b7451	0.2723718
61	0xbcc47f3c	-0.023986451
62	0xbd8446b7	-0.064588
63	0xbe60b762	-0.21944955
64	0xbe5da084	-0.21643263
65	0x3e8070b2	0.2508598
66	0x3c9d6834	0.019214727
67	0x3db6ef49	0.08932359
68	0x3d09422f	0.033510383
69	0x3e3c8454	0.18409854
70	0x3e641a46	0.22275648
71	0x3d27f4dd	0.041005004
72	0x3e67e1b0	0.22644687
73	0x3e8ea879	0.2786291
74	0x3d8281bb	0.063724004
75	0x3e4417db	0.19149725
76	0xbdd62a24	-0.104572564
77	0xbe049fdc	-0.12951607
78	0x3e277f37	0.16357122
79	0xbda36cd8	-0.07979745
80	0x3dff27e6	0.12458782
81	0xbe985095	-0.2974898
82	0x3e3786fc	0.17922586
83	0x3e529651	0.20565154
84	0xbdb61c56	-0.088921234
85	0x3e6bf9ff	0.23044585
86	0x3d50767d	0.05089425
87	0xbe122825	-0.14273126
88	0xbb98bc89	-0.004661147
89	0xbe4c505e	-0.19952533
90	0xbe5f399d	-0.21799321
91	0xbdd37dfb	-0.10326763
92	0x3d85173f	0.064985745
93	0x3e27f2df	0.16401242
94	0x3e47b7f7	0.19503771
95	0x3e66bf34	0.22533876
96	0xbd822808	-0.063552916
97	0xbdfa5a5e	-0.122242674
98	0xbd8223fb	-0.06354519
99	0xbe09619a	-0.13416138
100	0xbd03780f	-0.03209692
101	0x3e2f0296	0.1709083
102	0xbdb2f627	-0.08738356
103	0xbe34a031	-0.17639233
104	0xbe375127	-0.17902051
105	0x3d556967	0.052102473
106	0xbe2296b2	-0.15877798
107	0x3e85f1f8	0.2616117
108	0x3daa9b40	0.08330393
109	0x3e011f8a	0.12609687
110	0x3e374a0d	0.17899342
111	0xbc03f684	-0.008054379
112	0x3c2a2644	0.0103851
113	0x3e41c70f	0.18923591
114	0x3e480b0c	0.19535464
115	0x3e49a853	0.19693117
116	0xbe10dd4d	-0.1414692
117	0x3e4b680d	0.19863911
118	0xbe435a25	-0.19077356
119	0x3d4b2afe	0.049601547
120	0x3c827b82	0.015928034
121	0x3c293db1	0.01032965
122	0x3e7e6725	0.24844034
123	0xbdbfcfc7	-0.09365802
124	0x3e17b3de	0.14814708
125	0x3dcb9e70	0.09942329
126	0xbe5576f2	-0.20846155
127	0xbc333377	-0.010937563
128	0xbe6e1e71	-0.232538
129	0xbe072235	-0.13196643
130	0x3defa8cb	0.117021166
131	0xbe2c2254	-0.1680997
132	0x3c4350e8	0.011921145
133	0x3e8bbd7b	0.27293
134	0x3e74ec48	0.23918259
135	0x3e09587f	0.13412665
136	0x3d4e03c9	0.05029658
137	0x3e2328e4	0.15933567
138	0xbe092631	-0.13393475
139	0xbe197264	-0.14985043
140	0x3e5126a4	0.20424896
141	0xbd9c8428	-0.07642394
142	0x3e1fce84	0.15606123
143	0xbe1b0f45	-0.15142544
144	0x3d689642	0.056783922
145	0x3d14ef0d	0.03636079
146	0x3d57a994	0.052651957
147	0xbe67b684	-0.22628218
148	0xbe4d8ebc	-0.2007398
149	0x3dcfb18f	0.101412885
150	0x3e77ee9b	0.24212115
151	0x3e2369d8	0.15958345
152	0xbe5e7f69	-0.2172829
153	0xbe44cf3a	-0.19219676
154	0xbe43fb23	-0.1913877
155	0xbe3ff374	-0.18745214
156	0x3e58ef9c	0.21185154
157	0x3e838f73	0.2569538
158	0x3d2a1622	0.041525014
159	0xbe72909e	-0.2368798
160	0x3df17b09	0.11791045
161	0x3e2473fc	0.1605987
162	0xbe72c681	-0.23708536
163	0x3dde87f7	0.10865777
164	0x3e3f3098	0.18670881
165	0xbde0f45d	-0.109841086
166	0xbcb7ed4d	-0.022452021
167	0xbe5013d3	-0.20320062
168	0x3dec343b	0.115334
169	0x3db6d600	0.08927536
170	0xbe3e115c	-0.1856131
171	0xbe601a49	-0.21885027
172	0x3e15266c	0.14565438
173	0x3dad4831	0.08461035
174	0x3c8b8008	0.017028823
175	0x3e318e6f	0.1733949
176	0x3c3ea94e	0.011637045
177	0xbe294c5b	-0.16533034
178	0xbe1f31da	-0.1554636
179	0x3cb31963	0.021862691
180	0x3e8849fd	0.2661895
181	0x3e90d821	0.28289893
182	0xbe0924c5	-0.13392933
183	0xbe68704d	-0.2269909
184	0x3e81bd32	0.25339657
185	0xbe72e8e6	-0.23721656
186	0xbe6e96d0	-0.23299718
187	0xbe117e80	-0.14208412
188	0x3e0ba8dc	0.13638633
189	0xbdb43865	-0.08799819
190	0x3e44b838	0.19210899
191	0x3c078ed9	0.008273804
192	0x3e3fd3cc	0.18733138
193	0x3e542528	0.20717299
194	0x3e22670a	0.15859619
195	0xbda16172	-0.07879914
196	0xbde81517	-0.113321476
197	0x3e4fcbfe	0.2029266
198	0x3e231ba4	0.15928513
199	0xbe416aab	-0.18888347
200	0xbe486e68	-0.19573367
201	0xbdb3c4c7	-0.08777767
202	0xbe7acb38	-0.24491584
203	0x3d56719c	0.05235444
204	0xbe64aa02	-0.22330478
205	0x3d8bea6b	0.06831821
206	0x3da5c244	0.08093694
207	0x3dc5a55d	0.09650681
208	0x3db8d08f	0.090241544
209	0xbe59dd74	-0.21275884
210	0xbe35963e	-0.17733094
211	0x3e58370d	0.2111475
212	0x3dc5ca58	0.09657735
213	0xbe56ea43	-0.20987801
214	0x3c9fe1f8	0.01951693
215	0xbe6c3621	-0.23067524
216	0x3d8b088d	0.0678874
217	0x3d078377	0.03308436
218	0xbcbdc234	-0.023163892
219	0x3cd3a26a	0.025834281
220	0x3de6e5df	0.11274313
221	0xbe60996a	-0.21933523
222	0x3e3c8c65	0.18412931
223	0x3d75a593	0.059972357
224	0x3e33c7c8	0.17556679
225	0xbe0e121b	-0.13874094
226	0xbe586953	-0.21133928
227	0xbe1b69bb	-0.15177052
228	0x3e1001e6	0.14063224
229	0x3e45b2b6	0.19306454
230	0xbcb9e40d	-0.02269175
231	0xbe22e711	-0.15908457
232	0x3e3fa304	0.1871453
233	0x3e0cb653	0.13741426
234	0x3e175357	0.14777885
235	0x3e10267b	0.14077179
236	0x3e2e69ea	0.1703259
237	0x3e05853a	0.13039103
238	0xbe0bf85b	-0.13668959
239	0xbe2b17f8	-0.16708362
240	0xbdf9d1cc	-0.12198219
241	0xbd27aee6	-0.04093828
242	0xbcd96f7a	-0.026542414
243	0x3e10846d	0.14113016
244	0xbdabbd00	-0.08385658
245	0xbe695ede	-0.22790095
246	0xbe602cdb	-0.21892111
247	0x3e50d6ad	0.20394392
248	0x3e4747db	0.19461004
249	0xbcfae76f	-0.030627934
250	0x3de8b590	0.11362755
251	0xbe656cf2	-0.2240484
252	0xbdbc3adc	-0.09190914
253	0x3e37c863	0.17947535
254	0x3e466728	0.19375288
255	0xbb60082a	-0.0034184554
